notebooks/model.pth (torch, 184987 bytes, 12 tensors)

conv_stack.0.weight f4 [64, 1, 3, 3]
0	0x3e5ad538	0.21370399
1	0x3e8399a7	0.25703165
2	0x3e50a91e	0.20377013
3	0x3c0aa774	0.0084627755
4	0x3d8d049b	0.06885644
5	0x3e9706a5	0.29497257
6	0xbd3e6cd6	-0.046490513
7	0x3df60979	0.120135255
8	0x3e8a89ea	0.27058345
9	0xbe0c38fd	-0.13693614
10	0x3e64a76f	0.22329496
11	0xbe883a1b	-0.2660683
12	0xbe8d92b8	-0.27651
13	0xbde68db2	-0.11257495
14	0x3e1800cf	0.14844058
15	0x3e76a5a8	0.2408663
16	0xbd7bf343	-0.06151129
17	0xbce40493	-0.027834212
18	0x3d9c8f45	0.07644514
19	0x3aafde04	0.0013417606
20	0xbae191ed	-0.0017209627
21	0xbb2ec531	-0.0026667828
22	0xbe2c4492	-0.16823032
23	0x3e70d16a	0.23517385
24	0xbd98b1e8	-0.07455808
25	0x3e11fc8f	0.142565
26	0x3e28a450	0.1646893
27	0x3e8506db	0.25981793
28	0xbdef6d51	-0.11690772
29	0x3e31b35b	0.17353575
30	0x3e6a928a	0.22907463
31	0xbe4fd21b	-0.20294993
32	0xbd0d6bbf	-0.034526583
33	0x3e3c776c	0.18404931
34	0xbe1df492	-0.15425327
35	0xbe5007bf	-0.20315455
36	0x3cd8fa10	0.026486427
37	0xbe7a45e2	-0.2444072
38	0x3dc041a1	0.09387518
39	0x3e843b8b	0.25826678
40	0xbdc036f7	-0.09385484
41	0x3d80f956	0.06297557
42	0x3d00ba1f	0.0314275
43	0xbd2074bc	-0.039173827
44	0xbeb42170	-0.3518176
45	0x3ed94e34	0.42442477
46	0xbe413209	-0.18866743
47	0xbb9fd51d	-0.0048777
48	0xbdac258f	-0.08405601
49	0xbe2ebd0f	-0.17064308
50	0x3e647344	0.22309595
51	0xbe2c9ae3	-0.1685596
52	0x3cf86279	0.030320393
53	0xbdc5ddb3	-0.096614264
54	0xbe59019b	-0.21192019
55	0x3e2e1166	0.16998824
56	0xbe1b1407	-0.15144359
57	0xbe449de9	-0.19200863
58	0x3df1f8a5	0.11815003
59	0x3e60786f	0.21920942
60	0xbe65de6a	-0.22448125
61	0x3e788366	0.24268875
62	0xbeaf1172	-0.34192997
63	0x3cb678ac	0.022274338
64	0xbd6d19d1	-0.05788595
65	0x3e597850	0.21237302
66	0x3e248b5b	0.16068785
67	0x3e13fb3d	0.14451309
68	0x3dff67b7	0.12470954
69	0xbe60f147	-0.2196704
70	0xbe1b2d62	-0.15154031
71	0x3eab41a1	0.33448508
72	0xbe0b22ed	-0.13587542
73	0x3e045c75	0.12925895
74	0xbd157059	-0.036484096
75	0xbd2c0999	-0.04200134
76	0xbe99e292	-0.30055672
77	0x3e88f47c	0.26749027
78	0x3dc29250	0.09500563
79	0xbe9dec03	-0.30844125
80	0x3da640ed	0.08117852
81	0xbe873a54	-0.26411688
82	0x3d937dd7	0.072017364
83	0xbd6e314c	-0.058152482
84	0x3e993501	0.2992325
85	0xbd712115	-0.05886944
86	0x3e070cde	0.13188502
87	0xbe872237	-0.2639329
88	0x3df7042b	0.12061342
89	0xbe1037d0	-0.14083791
90	0xbce22b22	-0.027608458
91	0xbe72e47d	-0.23719974
92	0xbc25401c	-0.010086086
93	0x3ddd5e03	0.10808947
94	0x3e0a5f25	0.13512857
95	0x3dd45d70	0.10369384
96	0x3eb3486d	0.35016194
97	0x3d5d2187	0.053987052
98	0xbdc0d40d	-0.094154455
99	0x3e895a2e	0.26826614
100	0x3db53a7a	0.08849044
101	0x3bf48c07	0.0074629816
102	0xbd188b08	-0.037241966
103	0x3d81965d	0.06327508
104	0xbd7a3671	-0.061087076
105	0x3e87ab25	0.2649776
106	0xbdc85c29	-0.09783203
107	0xbdcf9c83	-0.10137274
108	0x3e77c76c	0.24197167
109	0x3e2c09ad	0.16800566
110	0x3e7e2275	0.24817832
111	0xbe0bfaac	-0.13669842
112	0xbcf04f37	-0.029334648
113	0x3db4c278	0.088261545
114	0x3d80548a	0.062661245
115	0xbab9516a	-0.0014138643
116	0xbea0eee6	-0.31432265
117	0xbe4f491b	-0.20242731
118	0xbe628bfb	-0.22123711
119	0x3eada73f	0.3391666
120	0xbde1e302	-0.110296264
121	0xbe1915de	-0.14949748
122	0xbd8c3b24	-0.06847218
123	0x3e11d55e	0.1424155
124	0xbdffdbe4	-0.12493113
125	0x3eca4f76	0.3951375
126	0x3e32100d	0.17388935
127	0xbe99d41c	-0.3004464
128	0xbd1e7f6e	-0.038695745
129	0xbea7ee4d	-0.32798997
130	0x3e9014e3	0.28140935
131	0xbe19547b	-0.14973633
132	0xbd816123	-0.063173555
133	0xbe9fa514	-0.31180632
134	0x3e970bcf	0.29501197
135	0x3d18d0bb	0.037308436
136	0xbe1dbb6f	-0.15403531
137	0xbe8d0036	-0.27539223
138	0xbdef06b6	-0.11671202
139	0xbea35fb7	-0.31908962
140	0x3da3d025	0.07998685
141	0x3e94ce02	0.2906342
142	0x3cd40c74	0.025884844
143	0xbe5c3866	-0.2150589
144	0x3e9d7ca4	0.30759156
145	0x3def645f	0.11689066
146	0xbe0857f7	-0.13314806
147	0xbea23954	-0.31684363
148	0xbe8a2053	-0.26977786
149	0xbdc424aa	-0.095773056
150	0xbcb39066	-0.02191944
151	0x3e13cd01	0.14433672
152	0x3e6f6ec2	0.23382095
153	0xbdaba43d	-0.08380935
154	0xbd9366bd	-0.0719733
155	0x3e7e5dc0	0.2484045
156	0x3e730c1e	0.23735091
157	0xbcd15599	-0.025553511
158	0x3e25fac4	0.1620894
159	0x3e205b3f	0.15659808
160	0x3dfb430d	0.12268648
161	0x3cd205fe	0.025637623
162	0x3dd20562	0.10254933
163	0xbea8f832	-0.33001858
164	0xbe4d94e7	-0.20076333
165	0xbeb58f73	-0.35461006
166	0x3e82baaf	0.25533053
167	0x3dd36880	0.10322666
168	0x3e01c568	0.12672961
169	0x3e3dc730	0.18533015
170	0x3e1da97f	0.15396689
171	0x3e1a798f	0.15085433
172	0xbd9c1565	-0.07621268
173	0xbd61e1df	-0.055147048
174	0x3dde455d	0.10853074
175	0xbe81af27	-0.25328943
176	0xbe21a1ec	-0.15784425
177	0xbde1aa97	-0.110188656
178	0x3e35b90d	0.17746373
179	0xbe34b49b	-0.1764702
180	0x3e898109	0.2685626
181	0x3e5baa06	0.21451578
182	0xbe578fae	-0.21050903
183	0xbb683707	-0.003543319
184	0xbcc3b724	-0.02389104
185	0xbe858d65	-0.26084438
186	0x3e0266e4	0.12734562
187	0xbde0a186	-0.10968308
188	0x3e0c1e4c	0.13683432
189	0xbd6a1f20	-0.05715859
190	0x3d39895e	0.04529702
191	0xbe61eb4b	-0.22062413
192	0x3d9ad7bf	0.075606816
193	0xbe994519	-0.2993553
194	0x3e427af3	0.18992214
195	0x3e6614d1	0.22468878
196	0xbda482f5	-0.080327906
197	0xbe9a9a2c	-0.3019575
198	0xbc287aa1	-0.010283143
199	0x3dbbb4be	0.09165333
200	0xbe099c06	-0.13438424
201	0x3e928620	0.28617954
202	0x3e561929	0.20908035
203	0xbe94a215	-0.2902991
204	0xbcbc18d6	-0.022961061
205	0x3db9e92c	0.09077677
206	0xbc44cf9d	-0.0120123895
207	0x3d8eb192	0.069674626
208	0xbc5c9532	-0.013463305
209	0xbe85ab53	-0.26107273
210	0x3e241a17	0.16025577
211	0x3e86a787	0.26299688
212	0xbea9ebab	-0.33187613
213	0x3dd6230b	0.10455903
214	0xbe390e07	-0.18071757
215	0xbeae6932	-0.34064633
216	0xbd8f14ae	-0.06986366
217	0xbe987110	-0.2977376
218	0xbea8e8ff	-0.32990262
219	0x3e8b2f5d	0.27184573
220	0xbe36291d	-0.17789121
221	0x3dca5406	0.098793074
222	0xbdfbe12f	-0.1229881
223	0xbeac5d33	-0.33664855
224	0x3db73dd2	0.08947338
225	0xbe17728a	-0.14789787
226	0x3db0850f	0.08619129
227	0xbdc547a6	-0.096328065
228	0xbe1c010b	-0.15234773
229	0xbbc5fe48	-0.0060422756
230	0x3e91ba0e	0.2846226
231	0xbe0be4c2	-0.13661483
232	0x3ba64959	0.0050746617
233	0x3d2d3ff8	0.042297333
234	0x3e2fbb7e	0.17161366
235	0x3e93ce4c	0.2886833
236	0x3e466378	0.19373882
237	0x3e2828dc	0.16421837
238	0x3e1bcb23	0.1521421
239	0xbe0b11fe	-0.13581082
240	0x3dc56d74	0.09640017
241	0x3e8e345e	0.27774328
242	0xbea64e11	-0.32481435
243	0xbe582aa0	-0.2111001
244	0xbe3050a0	-0.17218256
245	0x3ebac8b1	0.3648124
246	0xbdbd73f4	-0.09250632
247	0xbd63940a	-0.055561103
248	0x3af06ce3	0.0018342998
249	0x3e9c781a	0.3056038
250	0x3e116b09	0.14200987
251	0xbdad9138	-0.08474964
252	0x3e5264e1	0.20546295
253	0xbd71a542	-0.058995493
254	0xbdf8bf67	-0.12145882
255	0xbe3eae86	-0.18621263

conv_stack.0.bias f4 [64]
0	0xbead9d20	-0.3390894
1	0x3dab4604	0.08362964
2	0xbd965412	-0.07340254
3	0xbdda678e	-0.10664283
4	0x3d9eb9b8	0.07750267
5	0xbddf724f	-0.109104745
6	0x3e93b4ad	0.28848782
7	0xbea2070f	-0.3164601
8	0x3e018056	0.12646613
9	0x3e4c18d4	0.19931346
10	0xbe07d73e	-0.13265702
11	0xbe42c42b	-0.19020145
12	0xbd1ccc20	-0.038280606
13	0xbe738bcc	-0.23783797
14	0x3e3ed048	0.1863414
15	0x3c982c23	0.018575734
16	0x3c89c36e	0.016816821
17	0xbdaf9b4f	-0.08574545
18	0x3d91976d	0.0710896
19	0x3e4f3ec6	0.2023879
20	0xbc4e3765	-0.012586449
21	0x3d6d0f06	0.057875656
22	0xbd08bf0f	-0.033385333
23	0x3e6a9c10	0.22911096
24	0x3ea61c43	0.32443437
25	0x3e992473	0.2991062
26	0x3e0495ea	0.12947813
27	0xbe452b6d	-0.19254847
28	0xbe006260	-0.12537527
29	0xbda50b9f	-0.08058857
30	0xbd35bee1	-0.04437149
31	0xbd873862	-0.06602551
32	0xbd444fd3	-0.04792769
33	0xbe1ca93e	-0.15298936
34	0xbdc0495c	-0.09388992
35	0xbd350a78	-0.044199437
36	0x3d9c7b04	0.07640651
37	0x3cf9e2fa	0.030503739
38	0x3e9993fa	0.2999571
39	0x3d84e25a	0.06488486
40	0x3e6dbc80	0.23216438
41	0x3d22f814	0.039787367
42	0x3e3ae530	0.1825149
43	0xbe91bf6b	-0.28466353
44	0xbe7fa190	-0.24963975
45	0xbbd0d020	-0.0063724667
46	0xbc592f87	-0.01325596
47	0xbea65c29	-0.32492188
48	0x3dbe9915	0.09306542
49	0xbdf47139	-0.11935658
50	0x3e0dff1b	0.13866846
51	0x3e5ebfed	0.21752901
52	0xbde92e0c	-0.11385736
53	0x3d9b1074	0.075714976
54	0xbea9201f	-0.3303232
55	0x3d98964c	0.07450542
56	0xbdc2a9bc	-0.095050305
57	0x3ce8ac8e	0.028402593
58	0xbe6499ce	-0.22324297
59	0xbdf4e720	-0.11958146
60	0xbded7699	-0.11594886
61	0xbde1f81f	-0.110336535
62	0xbd251e68	-0.0403122
63	0xbd9ffb62	-0.07811619

conv_stack.2.weight f4 [32, 64, 3, 3]
0	0xbdda1899	-0.10649223
1	0xbde08df6	-0.10964577
2	0xbe2c570b	-0.1683008
3	0xbdc658de	-0.09684919
4	0xbdc9fab5	-0.09862272
5	0xbe18d3fb	-0.14924614
6	0xbe38b126	-0.18036327
7	0xbde13705	-0.10996822
8	0xbe33e592	-0.17568043
9	0x3c8c69b0	0.01714024
10	0xbd189587	-0.037251975
11	0x3c000513	0.00781371
12	0x3c62c75f	0.013841479
13	0x3c53b7f7	0.012922279
14	0xbcdd8cd1	-0.027044686
15	0xbb5d1dc3	-0.0033739663
16	0xbc7aee7a	-0.015315646
17	0x3bfd5d83	0.0077320947
18	0xbcfb9c6e	-0.03071424
19	0xbc6defc1	-0.014522494
20	0xbd7f588d	-0.062340308
21	0xbd2f1b7e	-0.042750828
22	0xbd8dd820	-0.06925988
23	0xbd860080	-0.06543064
24	0xbc92ff02	-0.017943863
25	0xbd3961d2	-0.045259304
26	0xbcd42f2e	-0.025901403
27	0xbd197c78	-0.03747222
28	0x3cd8873f	0.026431678
29	0x3d00be0c	0.031431243
30	0xbcb9d0f4	-0.022682644
31	0xbcce30fd	-0.025169844
32	0xbd058636	-0.032598697
33	0x3cd1696f	0.02556297
34	0xbcd74387	-0.026277317
35	0xbb562278	-0.0032674354
36	0x3cd65442	0.026163224
37	0x3be685b5	0.007034982
38	0x3c1caba3	0.009562406
39	0xbcf697df	-0.030101715
40	0x3bf770ff	0.007551312
41	0x3d14510a	0.036210097
42	0x3c154d11	0.009112612
43	0xbd002439	-0.031284545
44	0x3d22f586	0.03978493
45	0xbc7cf7ea	-0.015439967
46	0xbd17f51c	-0.03709899
47	0x3d332e96	0.0437456
48	0xbd03b358	-0.032153457
49	0x3d15e032	0.036590762
50	0xbcf6c3c6	-0.030122649
51	0xbb4b447a	-0.0031016157
52	0x3c91e946	0.017811429
53	0x3c92547f	0.017862557
54	0xbc070242	-0.008240284
55	0x392a7c06	0.00016258666
56	0x3c63a074	0.0138932355
57	0xbc66451a	-0.014054561
58	0x3a0f04bc	0.00054557226
59	0x3ce4039b	0.02783375
60	0xbcb66d97	-0.022269053
61	0x3c77c433	0.015122461
62	0xbc258d84	-0.010104541
63	0x3b67adfd	0.0035351508
64	0xbc599837	-0.01328092
65	0xbc09d817	-0.008413336
66	0xbb97d60e	-0.0046336716
67	0x3a93ef13	0.001128646
68	0xbd4b833b	-0.049685698
69	0xbd92cbf6	-0.07167809
70	0xbd232826	-0.03983321
71	0x3bd659d1	0.0065414687
72	0x3c244d8c	0.010028254
73	0xbc8351fc	-0.016030304
74	0x3bff1cb1	0.0077854027
75	0x3cfe14ee	0.03101584
76	0xbbdb64a5	-0.0066953474
77	0x3c4aecb5	0.012385537
78	0x3d5119d6	0.05105003
79	0xbb5184a2	-0.0031969924
80	0xbc350069	-0.011047461
81	0xbc38109f	-0.0112344315
82	0xbcf837a8	-0.030299976
83	0xbc435148	-0.011921234
84	0xbcc54350	-0.024079949
85	0x3b3a125f	0.0028392298
86	0x3c353aae	0.011061354
87	0xbc139468	-0.009007551
88	0xbca4563a	-0.020060647
89	0x3c1cb874	0.009565461
90	0xbd041175	-0.03224321
91	0xbd815c15	-0.063163914
92	0xbd0b0d57	-0.03394827
93	0xbd9edeb9	-0.07757325
94	0xbd5f2e5b	-0.054487567
95	0xbd52ecdd	-0.05149542
96	0xbd46c922	-0.04853166
97	0xbd11f158	-0.035630554
98	0xbd76b1a1	-0.060227994
99	0xba985f90	-0.001162516
100	0x3c0221f8	0.007942669
101	0xbbbccd10	-0.00576175
102	0xbd1f7dc0	-0.038938284
103	0x3b5fba0b	0.003413799
104	0xbd500819	-0.050788973
105	0xbce95716	-0.028483909
106	0x3bfb502c	0.0076694693
107	0xbbeb0bd8	-0.0071730427
108	0x3c2bf993	0.010496515
109	0xbd4b4ed9	-0.04963574
110	0xbd55fe74	-0.05224462
111	0xbcb96751	-0.022632273
112	0x3b261a69	0.0025345332
113	0xbbbe57e0	-0.0058088154
114	0x3c9b60a3	0.018966978
115	0xbd3eb024	-0.0465547
116	0xbd133f51	-0.035949055
117	0xbd15c921	-0.036568765
118	0x3cb64a77	0.022252304
119	0x3b75fc7e	0.003753453
120	0x3ce13739	0.027492153
121	0xbc852d96	-0.016257089
122	0xbd1ec1ee	-0.038759165
123	0x3cc759fe	0.024334904
124	0x3caff1af	0.021477548
125	0xbd27e131	-0.040986244
126	0x3c303a9c	0.010756161
127	0x3d7dd04e	0.061966233
128	0x3d6ca284	0.057772174
129	0x3c98ecd6	0.01866762
130	0x3c5ee595	0.013604541
131	0x39a5f2ea	0.00031652238
132	0x3d120ae4	0.035654917
133	0x3b9103c6	0.0044254987
134	0x3d473dbf	0.04864287
135	0xbce90535	-0.028444866
136	0xbc392c96	-0.011302134
137	0x3c8324c5	0.016008744
138	0x3d3b442b	0.045719307
139	0xbcdee0c8	-0.027206793
140	0xbcbd70e3	-0.023125118
141	0x3d5add34	0.053433612
142	0xbccba7fb	-0.024860373
143	0x3d42f6cb	0.04759864
144	0xbb3fdae5	-0.0029274758
145	0x3bfc9065	0.007707643
146	0xbc8f311d	-0.017479474
147	0x3cd37821	0.025814118
148	0x3c806ea2	0.015677754
149	0xbc678dcb	-0.014132927
150	0x3c7a0bdc	0.015261617
151	0xbb8802cd	-0.0041507245
152	0xbc5d681a	-0.013513589
153	0xbc823904	-0.015896328
154	0xba5eb887	-0.00084961246
155	0xbd553b7d	-0.052058686
156	0x3c7b03d0	0.015320733
157	0xbbd03af7	-0.0063546854
158	0x3b017368	0.0019752625
159	0xbc885c42	-0.016645554
160	0xbcca8655	-0.024722258
161	0xbd17b688	-0.03703931
162	0xbc992548	-0.018694535
163	0x3c534b71	0.012896405
164	0xbd1c1b65	-0.038112063
165	0x3c20f461	0.0098238895
166	0x3ca28331	0.019837948
167	0x3c2f2ba8	0.010691561
168	0x3c71242e	0.014718099
169	0xbd1916f2	-0.037375398
170	0xbc82e698	-0.015979096
171	0xbb8142d2	-0.003944733
172	0x3d6b31cd	0.05742054
173	0xbc8d726c	-0.017266475
174	0x3d64c149	0.055848394
175	0x3d137036	0.035995685
176	0xbc170191	-0.009216682
177	0x3cc7fc79	0.02441238
178	0x3d83a953	0.064287804
179	0xbc778953	-0.015108424
180	0x3c0fceac	0.008777302
181	0xbc0f4d0e	-0.008746399
182	0x3d00ada4	0.031415597
183	0x3c3af45a	0.011410797
184	0xbd20b718	-0.03923711
185	0x3cdd5a50	0.027020603
186	0x384148f0	4.6082714e-05
187	0xbcd397a4	-0.025829144
188	0xba8bc7ca	-0.00106644
189	0x3d37d618	0.04488191
190	0x3d7ddd27	0.061978485
191	0x3cbf0c7b	0.02332138
192	0x3d0278db	0.031853538
193	0x3ce96a5e	0.028493103
194	0x3d3a8d16	0.045544706
195	0x3d738d0a	0.059460677
196	0x3bca7ffc	0.0061798077
197	0x3c8d140d	0.017221475
198	0xbc4fd292	-0.012684481
199	0x3c6c2d8f	0.014415159
200	0x3c915e12	0.017745052
201	0xbce84db5	-0.028357366
202	0x3cb79dcc	0.02241411
203	0x3cbcd0ee	0.023048844
204	0xbd5a4370	-0.05328697
205	0xbc3c9588	-0.01151026
206	0x3cd26637	0.025683505
207	0x3cf3614f	0.029709486
208	0x3d669e39	0.056303237
209	0x3da329a6	0.07966928
210	0x3d3ab209	0.045579944
211	0x3d39289a	0.045204736
212	0x3cc2a73c	0.023761384
213	0x3d014835	0.031563003
214	0x3cbc245d	0.022966558
215	0x3d057ea2	0.03259147
216	0x3d4603de	0.04834353
217	0x3db1941f	0.0867083
218	0x3d0d63f8	0.034519166
219	0x3d39496d	0.04523604
220	0x3cd98bd2	0.02655593
221	0x3d45cd85	0.0482917
222	0x3cfec8ae	0.03110155
223	0x3d143319	0.036181543
224	0x3db3c740	0.08778238
225	0xbd04e9b6	-0.032449447
226	0xbb871675	-0.00412255
227	0x3cc89f37	0.024489982
228	0x3c9d1f1f	0.019179879
229	0xbcd79fc0	-0.026321292
230	0x3d220ac1	0.039561037
231	0xbcef79c4	-0.029232867
232	0x3d156383	0.036471855
233	0x3a8f24a5	0.0010920955
234	0x3b9dbd84	0.004813852
235	0xbd1f7053	-0.03892548
236	0xbb55727f	-0.0032569466
237	0xbd36e29a	-0.044649698
238	0xbce2adb9	-0.027670728
239	0x3c85bce0	0.016325414
240	0x3ce60bb4	0.028081752
241	0x3c4d4ae9	0.012530067
242	0x3c5e5d94	0.013572115
243	0xbb4935e9	-0.00307023
244	0xbce7da75	-0.02830241
245	0xbd31581f	-0.04329693
246	0x3cd0200d	0.025405908
247	0xbccecfdd	-0.025245601
248	0xbc1d4c18	-0.009600662
249	0x3b80f747	0.0039357278
250	0xbcb52749	-0.02211346
251	0xbc58f318	-0.013241552
252	0xbbff0cdf	-0.007783517
253	0xbc72af28	-0.014812268
254	0xbc56495a	-0.013079012
255	0xbb02d9a7	-0.0019966157

conv_stack.2.bias f4 [32]
0	0x3d232dc7	0.03983858
1	0x3d1479fd	0.03624915
2	0xbcd9f080	-0.026603937
3	0x3d12bbf4	0.035823777
4	0xbcd882e7	-0.026429607
5	0xbcbae995	-0.022816459
6	0x3c3cb1eb	0.011517028
7	0x3cbc9d4d	0.023024226
8	0x3c7c58e1	0.01540205
9	0x3ca90175	0.020630578
10	0xbc1f938d	-0.009739769
11	0xbd294d55	-0.041333515
12	0xbd2940de	-0.041321628
13	0xbcc9ea80	-0.024647951
14	0x3b821a16	0.003970395
15	0xbd229340	-0.03969121
16	0x3cd14b61	0.025548639
17	0xbd40e008	-0.047088653
18	0xbd536ff8	-0.051620454
19	0xbc953512	-0.018213782
20	0xbc05777b	-0.008146162
21	0xbcbf350a	-0.02334072
22	0x3abec059	0.0014553174
23	0x3d1bef04	0.03806974
24	0xbc4b19fe	-0.012396334
25	0x3cc5fa1a	0.02416711
26	0x3be7c742	0.007073314
27	0x3c52462f	0.012834116
28	0xbd3c8d64	-0.046033278
29	0x3ae5be4d	0.0017528028
30	0xbbde618e	-0.006786532
31	0x3bb3844f	0.005478419

conv_stack.4.weight f4 [16, 32, 3, 3]
0	0xbdf1999a	-0.11796875
1	0xbddbb4f3	-0.10727873
2	0xbddbcf78	-0.10732931
3	0xbd206039	-0.039154265
4	0xbd35e013	-0.044403147
5	0xbd8600d9	-0.065431304
6	0xbdf21bb2	-0.11821689
7	0xbd97fb0a	-0.07420929
8	0xbd9b7787	-0.075911574
9	0xbde4007e	-0.111329064
10	0xbe1083c0	-0.14112759
11	0xbe2b900e	-0.16754171
12	0xbd896e1a	-0.06710453
13	0xbe12b152	-0.14325455
14	0xbe171a1a	-0.1475605
15	0xbde07c97	-0.109612636
16	0xbde1c5ad	-0.11024032
17	0xbd997929	-0.074938126
18	0x3dcaf34f	0.09909689
19	0x3cd1cb66	0.025609683
20	0x3d3234da	0.043507434
21	0x3d7be5a7	0.06149831
22	0x3d84a15e	0.06476091
23	0x3da21a74	0.07915202
24	0x3dc956f6	0.098310396
25	0x3ca0f1ea	0.019646604
26	0x3d406df5	0.046979863
27	0x3c2195db	0.0098623885
28	0xbd8f2290	-0.06989014
29	0xbd68059c	-0.056645975
30	0x3cbe9990	0.023266584
31	0xbd938318	-0.072027385
32	0xbcf4b1ae	-0.02986988
33	0xbce28437	-0.027650936
34	0xbd8900c8	-0.06689602
35	0x3c7d8353	0.015473205
36	0x3c095433	0.008381891
37	0xbcf3f8c4	-0.029781707
38	0x3bb8b13b	0.005636362
39	0xbcbccc15	-0.023046533
40	0x3d384eef	0.044997152
41	0x3d27f3b7	0.04100391
42	0xbd5e46aa	-0.05426661
43	0xbd3eebfe	-0.04661178
44	0x3d239a2c	0.03994195
45	0x3dad952e	0.084757194
46	0x3d65eee4	0.056136027
47	0x3d84121e	0.06448768
48	0x3dc62e10	0.096767545
49	0x3c9c8995	0.019108573
50	0x3d6e11cd	0.058122445
51	0x3dc6ac32	0.097008124
52	0x3ddcbc55	0.10778109
53	0x3d12a501	0.03580189
54	0xbd91532f	-0.07095944
55	0xbd95bc8c	-0.07311353
56	0xbd6957c6	-0.056968473
57	0xbcab673f	-0.020923255
58	0xbb962bf6	-0.0045828773
59	0x3c43883c	0.011934336
60	0xbd41781a	-0.04723368
61	0x3a4b3b9f	0.00077527197
62	0x3bda1dd6	0.0066563888
63	0x3b1fead8	0.0024401452
64	0xbbba20cb	-0.0056801788
65	0x39a44bc4	0.00031336967
66	0xbd1010a0	-0.035172105
67	0xbd8abb1f	-0.06773972
68	0x3bc48f2a	0.005998512
69	0xbcf46d4a	-0.02983727
70	0xbd3d436c	-0.046206877
71	0xbd0ade92	-0.033903666
72	0x3d9d149c	0.076699466
73	0x3d82992f	0.06376874
74	0x3dd704c2	0.10498954
75	0x3cf375ba	0.029719222
76	0x3cb1db75	0.02171109
77	0x3db7657c	0.089549035
78	0x3d22743a	0.039661624
79	0x3abe7fb8	0.0014533913
80	0x3d93f9b3	0.07225361
81	0x3da29e6f	0.07940375
82	0x3d300210	0.042970717
83	0xbabfcd59	-0.0014633342
84	0x3d627755	0.055289585
85	0x3d727745	0.059195776
86	0x3bddcfa8	0.0067691393
87	0x3d218045	0.039428968
88	0xbc9fd37a	-0.01951002
89	0xbd10a183	-0.03531028
90	0x3b01957c	0.0019772938
91	0xbd00d74f	-0.031455334
92	0x3d848e1f	0.0647242
93	0x3c8b865a	0.017031837
94	0x3d0ccddc	0.03437601
95	0x3d9a0028	0.07519561
96	0xbaa71df7	-0.0012750019
97	0x3d5135da	0.051076747
98	0xbc9fd407	-0.019510282
99	0x3d6195f3	0.055074643
100	0x3b807509	0.0039202017
101	0xbccbc078	-0.02487205
102	0x3cbc2bb4	0.022970058
103	0xbc02461c	-0.007951286
104	0x3c9aaed1	0.018882187
105	0x3b98955b	0.0046564764
106	0x3c570035	0.013122608
107	0x3da90f7a	0.08254905
108	0x3db8f09a	0.09030266
109	0x3d5eef79	0.054427598
110	0x3d719144	0.058976427
111	0x3d632ac6	0.055460714
112	0x3d97ed13	0.07418265
113	0x3cbbf6b4	0.022944786
114	0x3ba2b02b	0.0049648485
115	0xba2b9cc9	-0.0006546495
116	0x3dae56ab	0.08512624
117	0xbc5cc2a1	-0.0134741375
118	0x3c92d4b2	0.017923687
119	0xbd1a5a48	-0.037683755
120	0xbd8a1636	-0.06742518
121	0xbce4f377	-0.027948124
122	0xbcdda02b	-0.027053913
123	0xbd5251dd	-0.051347602
124	0xbd1ce22b	-0.038301628
125	0xbc9ed224	-0.019387312
126	0x3be35aaa	0.0069382982
127	0xb9a8994c	-0.00032157672
128	0x3ce352c3	0.027749425
129	0xbd393d17	-0.045224275
130	0x3b9764dc	0.0046201777
131	0xbc3bc9fd	-0.011461732
132	0x3cd6677d	0.026172394
133	0xbd518a2f	-0.051157173
134	0x3cb40826	0.021976542
135	0x3da38c2b	0.07985719
136	0x3e198405	0.14991768
137	0x3dab8243	0.08374455
138	0x3da17808	0.07884222
139	0x3d050e92	0.0324846
140	0x3d81c180	0.06335735
141	0x3e15a4b3	0.14613609
142	0x3d431806	0.047630332
143	0x3e0207c9	0.12698282
144	0xbb7a432f	-0.0038187017
145	0x3bcefc46	0.0063166944
146	0x3c9bdc69	0.019025998
147	0x3c89c8d2	0.016819391
148	0xbc2866a4	-0.010278378
149	0x3d84a28c	0.06476316
150	0x3d3a2f34	0.045455173
151	0xbbb6bc45	-0.0055766427
152	0x3d919ee2	0.071103826
153	0x3da176fb	0.07884022
154	0x3e0ca34b	0.13734166
155	0x3d0b45f9	0.034002278
156	0x3d92e4c3	0.07172539
157	0x3d81f48e	0.06345473
158	0x3e0c7eb3	0.13720207
159	0x3d4112ec	0.047137186
160	0x3df438bf	0.11924886
161	0x3db4b5e8	0.08823758
162	0x3d7a2730	0.06107253
163	0x3b5a4922	0.003330775
164	0x3d7b71d3	0.061387848
165	0x3d5b8342	0.053591974
166	0x3d7dc3af	0.061954197
167	0x3d09853c	0.033574328
168	0x3dc18946	0.09450011
169	0x3c82c60e	0.01596358
170	0x3d956353	0.07294335
171	0x3c0721cf	0.008247807
172	0xbd38b7a9	-0.045097027
173	0x3d7ddc57	0.06197771
174	0xbc909658	-0.017649814
175	0x3aeee18a	0.0018225175
176	0xbcc2b635	-0.023768524
177	0xbc96389c	-0.01833754
178	0xbd14dffa	-0.036346413
179	0x3d74bdc0	0.059751272
180	0x3dbab1d8	0.09115952
181	0x3d76dbb2	0.06026811
182	0x3ce2688e	0.027637746
183	0x3d2f629d	0.042818654
184	0x3d004fef	0.03132623
185	0x3dbcf8b7	0.09227126
186	0x3cb7f0b5	0.022453645
187	0xbcb75b6e	-0.022382464
188	0x3d7c716c	0.061631605
189	0xbd1c53b1	-0.03816575
190	0x3d089385	0.03334381
191	0xbc49fc51	-0.012328223
192	0xbc9b4b47	-0.018956793
193	0xbad8f461	-0.0016552323
194	0xbd204f4f	-0.039138135
195	0x3d0f70c1	0.03501964
196	0x3bdbef97	0.006711911
197	0xba7af479	-0.00095731724
198	0x3df9b918	0.12193507
199	0x3e19a697	0.15004955
200	0x3db9170a	0.090375975
201	0x3dafcc78	0.08583921
202	0x3dbc8a32	0.09206046
203	0x3d9a1384	0.075232536
204	0x3dbe4a38	0.092915
205	0x3dda832b	0.106695496
206	0x3daae9d8	0.083453834
207	0x3b744082	0.0037269895
208	0xbcc5e94a	-0.024159092
209	0xbd41d8d1	-0.047325913
210	0xbd3e38b5	-0.0464408
211	0x3c817575	0.015803078
212	0x3c074736	0.008256724
213	0xb9f4308e	-0.00046575483
214	0xbd88eede	-0.06686185
215	0xbd43d7bd	-0.047813166
216	0x3af3b3c3	0.0018593002
217	0x3d03b2e5	0.03215303
218	0x3c80cea6	0.015723538
219	0x3c951719	0.01819949
220	0x3b12cc02	0.002239943
221	0x3d41dae2	0.047327884
222	0x3ce4f6fc	0.027949803
223	0xbd44f802	-0.04808808
224	0xbd5eb766	-0.05437412
225	0x3d6a273b	0.05716632
226	0x3d3bbfcf	0.04583722
227	0x3d0953c3	0.033527147
228	0x3db26afd	0.08711813
229	0x3d6c583d	0.057701338
230	0x3a23ee17	0.00062534347
231	0x3d91cafd	0.07118795
232	0x3ca07180	0.019585371
233	0xbcc538e6	-0.024074983
234	0x3b597a6b	0.003318454
235	0x3d66a37d	0.05630826
236	0x3c748416	0.01492407
237	0xbd19ce5e	-0.037550323
238	0x3d5fec7b	0.054668885
239	0x3be12ac3	0.0068715527
240	0xbcd92b60	-0.02650994
241	0xbd1ed18e	-0.038774066
242	0x3b09899c	0.0020986563
243	0x3bdfe1ff	0.0068323608
244	0xbdd09736	-0.10185091
245	0xbd3545d9	-0.044256065
246	0xbdbaef0b	-0.09127625
247	0x391de190	0.00015056715
248	0xbcb09e66	-0.021559905
249	0xbc72f634	-0.014829207
250	0xbdcd0c25	-0.10012082
251	0xbd554154	-0.052064255
252	0x3d0ab5f0	0.033864915
253	0x3de41683	0.11137106
254	0x3de442f8	0.11145586
255	0x3d6597d4	0.056052998

conv_stack.4.bias f4 [16]
0	0xbccf6bfb	-0.025320044
1	0xbd2b5a12	-0.041833945
2	0xbd493097	-0.049118605
3	0xbcd0e8c2	-0.025501613
4	0x3c81f781	0.01586509
5	0xbd83a55c	-0.06428024
6	0xbc46dc79	-0.012137526
7	0x3d06c64e	0.03290396
8	0x3d8426fe	0.0645275
9	0x3dad4b99	0.08461685
10	0xbb1add24	-0.0023630345
11	0x3d440fae	0.047866516
12	0xbd8271fa	-0.063693956
13	0x3cc7fda3	0.024412936
14	0xbd68691d	-0.05674087
15	0xbd5ad2ae	-0.053423576

fc_stack.0.weight f4 [120, 144]
0	0x3d7d435c	0.061831817
1	0x3d8e0349	0.0693422
2	0x3d59e555	0.053197224
3	0x3cdca6f0	0.02693507
4	0x3b1fcfc4	0.0024385313
5	0x3d4eedac	0.05051963
6	0xbde7e569	-0.113230534
7	0xbdff10ad	-0.124543525
8	0xbd36a0b7	-0.044586863
9	0xbd645884	-0.055748478
10	0x3d303a38	0.04302427
11	0x3d6db573	0.05803437
12	0x3d11f1c3	0.035630953
13	0xbcdbdb37	-0.026837928
14	0x3d528aea	0.05140201
15	0x3cf90736	0.030398946
16	0xbd74fd50	-0.05981189
17	0xbd93f852	-0.07225098
18	0x3cb24bfb	0.021764746
19	0xbd5ddbe5	-0.054164786
20	0x3ce7e72a	0.02830847
21	0x3d833ff0	0.064086795
22	0xbac59fec	-0.0015077568
23	0xbc7f6e98	-0.015590332
24	0x3d9e69a7	0.07734995
25	0x3d22caf9	0.03974435
26	0x3da6c6bf	0.081433766
27	0x3d961653	0.07328477
28	0xbd8f172a	-0.0698684
29	0xbcfb2ea6	-0.030661892
30	0xbda383af	-0.07984101
31	0x3d6336f5	0.055472333
32	0xbda9f5ea	-0.082988575
33	0x3cb54d99	0.022131728
34	0xbd73c63f	-0.059515234
35	0x3ce01276	0.027352553
36	0x3d8d3340	0.06894541
37	0x3d74e94b	0.059792798
38	0x3db78fe9	0.089629956
39	0xbd06ace0	-0.03287971
40	0x3d807c9c	0.06273767
41	0xbc5b11f2	-0.013370978
42	0x3daa0315	0.08301369
43	0x3bb828c8	0.005620096
44	0x3be3d8db	0.0069533414
45	0x3d70b52a	0.05876652
46	0x3c08853e	0.008332549
47	0xbcbd3155	-0.023094812
48	0xbc3fd691	-0.011708871
49	0xbdca902a	-0.09890778
50	0xbdc26cf5	-0.09493438
51	0xba58bb91	-0.00082676957
52	0xbc474723	-0.012162956
53	0xbd072b2d	-0.03300016
54	0xbd684ac5	-0.05671193
55	0xbd56de24	-0.052457944
56	0xbb1720fe	-0.0023060436
57	0xbc6a9872	-0.014318572
58	0xbdbf99ca	-0.09355505
59	0xbdc10531	-0.09424818
60	0xbd91eb75	-0.07124988
61	0x3d20f04a	0.039291658
62	0xbda5d792	-0.080977574
63	0xbce34556	-0.027743023
64	0x3aeedb05	0.0018223232
65	0x3da65150	0.08120978
66	0x3c2861d3	0.010277229
67	0xbc818e52	-0.015814934
68	0x3cc7bd97	0.024382396
69	0xbd9cf8a8	-0.07664615
70	0xbd663ce8	-0.05621043
71	0xbdb5c141	-0.08874751
72	0x3d0f5bf0	0.034999788
73	0x3d312c16	0.043254934
74	0x3d7202b2	0.0590846
75	0x3bdda194	0.0067636464
76	0xbd961f70	-0.07330215
77	0x3ba76576	0.0051085306
78	0x3d24a0d9	0.04019246
79	0x3d3f3ac9	0.04668692
80	0xbb85182c	-0.0040617194
81	0xbd96a3e9	-0.07355482
82	0xbd8c0f8e	-0.06838904
83	0xbd4e214d	-0.050324727
84	0x3d6e73e0	0.058215976
85	0xbd63d086	-0.055618785
86	0x3da2be6f	0.079464786
87	0x3d4da954	0.050210312
88	0xbd4d8ab6	-0.050181113
89	0x3d70cc08	0.05878833
90	0x3dc9451f	0.09827637
91	0xbc422da9	-0.011851707
92	0x3d09c44c	0.03363447
93	0x3d364a61	0.044504527
94	0x3d6bf8ad	0.057610203
95	0x3da37c93	0.07982745
96	0x3ccd8dab	0.025091967
97	0x3dcfaf92	0.10140909
98	0x3d8b37eb	0.06797775
99	0xbd6b5f8e	-0.057464175
100	0x3cebba5e	0.02877539
101	0xbd3c71bb	-0.0460069
102	0xbd2a66f8	-0.041602105
103	0xbdc71146	-0.097200915
104	0x3b5b83ec	0.003349538
105	0xbcdbaab4	-0.026814796
106	0xbc25ebd7	-0.010127029
107	0x3cb74be1	0.02237505
108	0xbab985ea	-0.0014154289
109	0x3da3e5a3	0.08002784
110	0xbd8cdc6a	-0.06877978
111	0x3d020c39	0.031749938
112	0xbd839044	-0.06424001
113	0xbd9a4323	-0.075323366
114	0x3d0d720b	0.034532588
115	0x3d62ece3	0.055401694
116	0xbd29bfb1	-0.041442577
117	0x3d996ce2	0.07491471
118	0xbd2a77c3	-0.04161812
119	0xbaf1cfc8	-0.0018448764
120	0x3d540551	0.051762883
121	0x3db96e1a	0.09054203
122	0xbc7ccebf	-0.0154301515
123	0x3d9e71b2	0.077365294
124	0x3d86fae3	0.065908216
125	0x3d74f471	0.05980343
126	0x3d8a6501	0.06757546
127	0x3d603c18	0.05474481
128	0xbc4eeabb	-0.012629206
129	0x3bde39aa	0.0067817764
130	0x3de0c778	0.10975546
131	0x3ddfed05	0.1093388
132	0xb9cd4938	-0.000391552
133	0xbc4cce6f	-0.0125003895
134	0x3d53a0ca	0.051667012
135	0x3d493a56	0.0491279
136	0x3b121e35	0.0022295837
137	0xbdb0c30c	-0.08630952
138	0xbdd35c80	-0.10320377
139	0xbd2fdfb2	-0.04293794
140	0xbdc8cb76	-0.09804432
141	0xbd8ba352	-0.0681826
142	0xbc5fd7f5	-0.013662328
143	0xbc4f0aa8	-0.012636818
144	0x3d8cfa81	0.06883717
145	0x3d9dd7c8	0.07707173
146	0x3c4cd7b5	0.0125026
147	0x3d070adf	0.03296935
148	0x3bc497ca	0.00599954
149	0xbd7d4d0d	-0.06184106
150	0xbd793c2e	-0.060848407
151	0xbd96982b	-0.073532425
152	0xbdcd8eee	-0.10037027
153	0x3d55d62e	0.05220621
154	0x3d6e2354	0.05813916
155	0xbdb65b7e	-0.089041695
156	0xbc43453d	-0.011918363
157	0x3d845b9e	0.06462787
158	0xbd83f82b	-0.06443819
159	0xbd887ff6	-0.066650316
160	0xbd1eab6a	-0.038737692
161	0xbdb69748	-0.08915573
162	0xbd9ecb46	-0.07753615
163	0x3d2847c6	0.041084073
164	0xbd90ebc9	-0.070762224
165	0x3c9de5ce	0.019274618
166	0x3d6f0414	0.0583535
167	0x3caec595	0.021334449
168	0x3d8e2810	0.06941235
169	0x3d80778f	0.06272804
170	0x3da3cc68	0.07997972
171	0x3cdf15d1	0.027232083
172	0x3d8aa9db	0.067706786
173	0xbd05edd2	-0.032697506
174	0xbdad0032	-0.08447303
175	0xbd2d30fc	-0.042283043
176	0xbc05cf1a	-0.008167053
177	0x3d900937	0.070330076
178	0x3d8f6bc0	0.070029736
179	0xbc97572c	-0.018474184
180	0xbc94231c	-0.018083148
181	0xbd447f67	-0.047973063
182	0x3d9f1fe1	0.07769752
183	0xbbd478c3	-0.0064841225
184	0x3d2679fd	0.04064368
185	0x3da9b437	0.082863264
186	0x3dbe8d49	0.09304292
187	0x3d4f331b	0.050585847
188	0x3d8f1507	0.069864325
189	0x3cef9b4e	0.02924886
190	0x3d881513	0.066446446
191	0xbd0bbfd8	-0.034118503
192	0xbda6b69d	-0.081402995
193	0x3a613d66	0.0008592218
194	0xbde3514f	-0.11099493
195	0xbdde6059	-0.108582206
196	0xbdbfe80d	-0.09370432
197	0xbd4c530b	-0.049883883
198	0x3c8a330c	0.016870044
199	0xbcdd7ee1	-0.02703804
200	0xbd0359ca	-0.03206805
201	0xbd82d772	-0.06388749
202	0xbbeb3571	-0.0071780016
203	0xbc2eca57	-0.010668359
204	0xbda5f54f	-0.081034295
205	0xbdccd3ff	-0.100013725
206	0xbd06e0a8	-0.032929093
207	0xbd4586c2	-0.04822422
208	0x3d43c253	0.047792744
209	0x3da4df4e	0.080504045
210	0x3c291d09	0.010321864
211	0xbd9ea132	-0.07745589
212	0xbd858be0	-0.0652082
213	0xbd81ba01	-0.063343056
214	0xbd42c629	-0.04755226
215	0xbd60acae	-0.05485218
216	0xbd43a086	-0.04776051
217	0xbd0a3f36	-0.03375169
218	0xbbcdfcf4	-0.006286258
219	0xbca14d2c	-0.019690119
220	0xbcb9c724	-0.022677965
221	0x3c7c2502	0.015389683
222	0x3cea55fb	0.028605452
223	0x3cd3cb9a	0.02585392
224	0x3ca4e21f	0.020127354
225	0xbd827f37	-0.063719206
226	0x3d9c69d5	0.07637373
227	0xbca79e70	-0.020461291
228	0xbce05108	-0.027382389
229	0xbd4c369a	-0.04985676
230	0xbd7a9099	-0.061173055
231	0xbd1b6ad8	-0.03794369
232	0x3d768ff4	0.06019588
233	0xbd0e8569	-0.0347952
234	0x3c7cf1ba	0.0154384915
235	0x3d8242a3	0.06360366
236	0xbd6d4c43	-0.057934057
237	0xbd0730ec	-0.03300564
238	0x3db1fa23	0.08690288
239	0x3bfd905b	0.007738156
240	0xbd4d57b9	-0.050132487
241	0xbcf31f74	-0.029678084
242	0xbba1ff44	-0.00494376
243	0xbda56b6e	-0.08077131
244	0x3d75204d	0.059845258
245	0xbd4239e6	-0.047418498
246	0x3d74893d	0.059701193
247	0xbd911e4f	-0.07085859
248	0x3d056ec8	0.032576352
249	0xbdbe90ee	-0.09304987
250	0xbc9f7aae	-0.019467678
251	0xbcf5dc21	-0.030012192
252	0xbd101990	-0.03518063
253	0x3c85074e	0.016238835
254	0xbc3bf610	-0.01147224
255	0xbd348e1b	-0.044080835

fc_stack.0.bias f4 [120]
0	0x3c29ff02	0.01037574
1	0xbd7fda42	-0.062464006
2	0xbd88ddcf	-0.06682932
3	0x3d410aa9	0.047129307
4	0x3d65c577	0.05609652
5	0x3d850f7a	0.064970925
6	0x3d34b14d	0.0441144
7	0xbd4a81e5	-0.049440283
8	0x3d67652b	0.056492966
9	0x3db59d97	0.088679485
10	0x3da75e9f	0.081723444
11	0x3d9a7690	0.07542145
12	0x3d3d64b2	0.04623861
13	0xbdbd875a	-0.09254332
14	0xbd7b0ae9	-0.0612897
15	0xbd144ce4	-0.03620614
16	0xbcab15ea	-0.020884473
17	0x3cc324b4	0.023821212
18	0xbceecaf2	-0.029149506
19	0x3cde9bc5	0.027173886
20	0x3d31e5ac	0.043431923
21	0x3d84437d	0.06458185
22	0x3d5e0fdf	0.054214355
23	0x3d1f860d	0.0389462
24	0x3bd521a8	0.0065042563
25	0xbc622a23	-0.0138039915
26	0x3d41cf52	0.047316857
27	0xbcdc6f15	-0.026908437
28	0x3d2cd47a	0.04219482
29	0x3d64e40e	0.055881552
30	0xbc966b1a	-0.018361617
31	0xbca81bee	-0.02052113
32	0x3bca2e23	0.0061700507
33	0x3d5a6d0c	0.05332665
34	0x3d63c87c	0.05561112
35	0x3d91c16d	0.07116971
36	0x3dc6c077	0.097046785
37	0xbd821ec1	-0.06353522
38	0xbd7fc6d7	-0.062445488
39	0xbd5aa1da	-0.05337701
40	0x3cc5f332	0.024163816
41	0x3d0811e6	0.033220194
42	0xbacb8401	-0.0015527011
43	0x3d651435	0.055927474
44	0x3d6ed9f8	0.05831334
45	0xbc5520e5	-0.013008331
46	0x3d601e16	0.054716192
47	0xbd7028bb	-0.058632594
48	0xbd165fd5	-0.036712486
49	0xbc9ed0d8	-0.019386694
50	0xbaf2b31e	-0.0018516516
51	0xbd1e2ddd	-0.038617957
52	0xbcc71d42	-0.024305943
53	0x3c8716e1	0.016490402
54	0x3daacd5f	0.08339953
55	0x3c6f646a	0.014611343
56	0x3d0b6ed2	0.034041233
57	0x3a692d77	0.00088950194
58	0x3d3b0713	0.045661043
59	0x3d87ed4b	0.06637057
60	0xbb27f877	-0.0025630274
61	0x3dc2f0fa	0.09518619
62	0x3c8e64f9	0.017382132
63	0xbd44260a	-0.04788784
64	0x3cb7934a	0.0224091
65	0xbd7f2ed6	-0.062300526
66	0x3a3a0cd8	0.0007097251
67	0xbd728041	-0.059204344
68	0xbc6ce497	-0.014458797
69	0xbd9c4970	-0.076311946
70	0x3dd07657	0.101788215
71	0x3d948347	0.07251602
72	0xbd2a01c5	-0.041505594
73	0xbcee093a	-0.029057134
74	0xbc6c0d48	-0.014407463
75	0xbc2e1a30	-0.010626361
76	0x3d6590dc	0.05604635
77	0xbcf613f0	-0.030038804
78	0x3be774ae	0.00706347
79	0x3d943cf4	0.072381884
80	0xbca28ea6	-0.01984341
81	0xbc15b8ba	-0.0091382805
82	0xbbfd0789	-0.0077218455
83	0xbd27c52c	-0.040959522
84	0x3cc33525	0.023829052
85	0x3cc3ec3c	0.023916356
86	0xbd711321	-0.058856133
87	0x3c031e7b	0.008002873
88	0xbcef767e	-0.029231306
89	0xbdc8deba	-0.09808107
90	0xbd588e07	-0.052869823
91	0x3d881d9e	0.06646274
92	0x3c94d090	0.018165857
93	0xbc1776da	-0.009244645
94	0xbd28efae	-0.0412442
95	0xbcb7c599	-0.02243309
96	0x3d9a3590	0.075297475
97	0x3b397d19	0.0028303324
98	0xbcdbda4e	-0.026837494
99	0x3d190d51	0.037366215
100	0xbd3b5ec8	-0.045744687
101	0x3d970598	0.07374114
102	0x3db026cc	0.0860115
103	0x3d749d53	0.05972035
104	0x3d5b0a06	0.053476356
105	0x3ca45606	0.02006055
106	0xbcdee0c3	-0.027206784
107	0x3cb08d2c	0.021551691
108	0x3b27900b	0.0025568034
109	0x3d1c55f2	0.0381679
110	0x3dce747c	0.100808114
111	0x3b39eddf	0.0028370542
112	0xbbd52b3b	-0.0065053976
113	0xbc8379d9	-0.016049312
114	0xbd5c1a8e	-0.053736262
115	0x3dac52e7	0.0841425
116	0x3da02d31	0.078211196
117	0x3d47d39e	0.0487858
118	0xbd756b51	-0.059916798
119	0x3ac46aaa	0.0014985402

fc_stack.2.weight f4 [32, 120]
0	0x3d90872e	0.070570335
1	0x3ce4c1b9	0.027924405
2	0x3d961e72	0.07330026
3	0x3c546150	0.012962654
4	0x3c2fafd0	0.010723069
5	0x3cfba9fa	0.0307207
6	0xbd339d72	-0.043851323
7	0xbdb7a263	-0.0896652
8	0xbc5cf827	-0.0134868985
9	0xbda74d40	-0.08169031
10	0x3c144079	0.009048575
11	0x3d6ba0e4	0.057526484
12	0x3d576655	0.052587826
13	0x3d3db525	0.04631533
14	0x3c09317a	0.008373613
15	0x3d6745e1	0.056463126
16	0xbb0a3625	-0.0021089402
17	0x3baa2209	0.0051920456
18	0x3d388d62	0.04505671
19	0xbd95246d	-0.07282338
20	0xbc1d0d19	-0.009585642
21	0x3c373f34	0.011184502
22	0x3d835c42	0.06414081
23	0x3d90d485	0.07071785
24	0xbdba5f5c	-0.091002196
25	0xbd3737c5	-0.04473092
26	0xbd8478f4	-0.064683825
27	0xbcd43cde	-0.02590793
28	0xbdc382e9	-0.095464535
29	0x3ce91bab	0.028455576
30	0x3d9a43b4	0.075324446
31	0xbdb947c6	-0.09046893
32	0xbd376ce5	-0.044781584
33	0x3da4d737	0.080488615
34	0xbd40a6e7	-0.04703417
35	0xbce3a7af	-0.027789919
36	0x3da88357	0.08228176
37	0xbc2a566e	-0.010396583
38	0xbd941e2a	-0.07232316
39	0xbdbad44e	-0.09122525
40	0xbda0054b	-0.078135096
41	0xbd01b570	-0.031667173
42	0x3d58b567	0.052907374
43	0xbd77b94a	-0.06047944
44	0x3da4eb76	0.08052723
45	0x3d4c10e3	0.049820792
46	0x3d4b49aa	0.0496308
47	0x3d82f10b	0.063936315
48	0x3d942dbe	0.07235287
49	0x3b96fa03	0.0046074404
50	0x3d99a9e7	0.075031094
51	0xbd46e556	-0.048558556
52	0xbdb1aba1	-0.08675314
53	0x3c1d71c3	0.009609642
54	0xbb7c89ae	-0.0038534212
55	0xbd3d2526	-0.046178006
56	0xbd5fba33	-0.054620933
57	0x3d43ef33	0.04783554
58	0xbd89b78f	-0.06724464
59	0x3c744053	0.014907914
60	0xbd142be6	-0.036174677
61	0x3b584a02	0.0033003096
62	0x3d21ac66	0.039471053
63	0x3d93b517	0.072122745
64	0xbbe523a4	-0.006992774
65	0xbd2adc2d	-0.041713882
66	0xbced7ab1	-0.028989168
67	0xbc9336a3	-0.017970389
68	0xbce1c09a	-0.02755766
69	0x3b87cb0a	0.004144077
70	0xbd4c769e	-0.04991781
71	0x3c62f410	0.013852134
72	0xbc2fe6df	-0.010736196
73	0xbd76990a	-0.060204543
74	0x3d0183af	0.031619724
75	0x3d85d8df	0.065355055
76	0x3d1d1140	0.03834653
77	0x3d0461fb	0.032320004
78	0xbdaf4565	-0.08558158
79	0x3d078557	0.033086147
80	0xbd3420b1	-0.04397649
81	0xbd06f69d	-0.032950033
82	0xbd81c81c	-0.06336996
83	0xbd9ae157	-0.075625114
84	0x3d6117b8	0.05495426
85	0xbdc769eb	-0.09736999
86	0xbd3eed64	-0.046613112
87	0xbd813552	-0.06308998
88	0xbbc4782d	-0.0059957714
89	0xbd62dd65	-0.05538692
90	0x3c878d72	0.016546939
91	0x3d2e93d6	0.042621456
92	0x3d2d4382	0.04230071
93	0x3d156617	0.036474314
94	0xbb2fd7a1	-0.0026831406
95	0x3d369dbd	0.044584025
96	0xbd527cc9	-0.051388536
97	0xbdbacadb	-0.09120723
98	0xbd1b846f	-0.037968095
99	0xbd76b7f1	-0.060234014
100	0xbd2afe41	-0.04174638
101	0xbd5b787d	-0.053581703
102	0x3d0a07ae	0.03369873
103	0xbbc97af0	-0.0061486885
104	0xbd479c67	-0.04873314
105	0x3d888d8a	0.066676214
106	0xbcd1ce99	-0.025611209
107	0x3d995b24	0.07488087
108	0xbdb4a630	-0.0882076
109	0xbdb81a22	-0.089893594
110	0xbdb83b18	-0.08995646
111	0xbd6af2ba	-0.05736039
112	0x3d2052d9	0.03914151
113	0x3cb274ae	0.021784153
114	0x3d84755f	0.06467699
115	0xbd8649de	-0.06557058
116	0xbd0b5a9b	-0.034021955
117	0xbc9a844d	-0.018861914
118	0x3d566e0a	0.052351035
119	0xbd382abd	-0.044962633
120	0xbb519063	-0.003197693
121	0x3d3a991b	0.04555617
122	0x3c951dac	0.018202625
123	0xbe090fc4	-0.1338492
124	0x3dd586c0	0.10426092
125	0x3d840500	0.06446266
126	0xbd80691c	-0.06270048
127	0xbc5217d0	-0.01282306
128	0x3d304cbd	0.043041933
129	0x3e00547a	0.12532225
130	0xbda2479e	-0.07923816
131	0x3c08744d	0.0083285095
132	0xbd45c5fe	-0.048284523
133	0xb9acfd5b	-0.0003299516
134	0x3da9a655	0.082836784
135	0xbda3ff84	-0.0800772
136	0xbbe8e088	-0.0071068443
137	0xb9896b0a	-0.00026210427
138	0xb942e32f	-0.00018585914
139	0x3d095f1a	0.03353796
140	0x3e29b19f	0.16571663
141	0xbdded30c	-0.10880098
142	0x3d60797b	0.054803353
143	0xbe06f95e	-0.13181064
144	0xbd87591a	-0.06608792
145	0xbcfb91b8	-0.030709133
146	0x3d1833e4	0.03715886
147	0xbcc42ef8	-0.023948178
148	0x3dc0f831	0.09422339
149	0xbda4c5c0	-0.0804553
150	0x3d42e9b7	0.04758617
151	0xbcedaa4e	-0.029011872
152	0x3d861577	0.06547063
153	0xbdb50991	-0.08839715
154	0x3d383586	0.04497292
155	0x3ca863f5	0.020555476
156	0x3e0883d5	0.1333154
157	0x3c87c57a	0.016573656
158	0xbd9315de	-0.07181905
159	0x3d88f782	0.06687833
160	0xbec124be	-0.37723345
161	0xbd5e0d02	-0.054211624
162	0xbdb41af4	-0.087942034
163	0xbe67a7df	-0.22622631
164	0xbd4d0784	-0.050055996
165	0xbca5f8fd	-0.020260328
166	0xbcebedeb	-0.028799972
167	0x3dd5fd32	0.10448684
168	0x3d24655e	0.040135734
169	0xbd5130e5	-0.05107202
170	0x3da92aa5	0.08260087
171	0xbd5d05b7	-0.05396053
172	0x3e05ba7e	0.13059422
173	0x3e149a66	0.14512023
174	0xbd9a52b9	-0.07535309
175	0x3e32a56a	0.17445913
176	0xbcf5cb8f	-0.03000429
177	0xbc2a4986	-0.010393506
178	0xbd66577a	-0.056235768
179	0x3c3e440d	0.011612904
180	0x3d0afd56	0.033933006
181	0x3dca11dd	0.098666884
182	0x3d8dc923	0.069231294
183	0x3da17a26	0.07884626
184	0x3da8dd98	0.08245391
185	0xbd3c0535	-0.045903403
186	0x3bd5d668	0.0065258034
187	0xbc89130d	-0.016732717
188	0x3d7d04eb	0.06177227
189	0xbd936af7	-0.07198136
190	0x3e105881	0.14096262
191	0x3e03b52e	0.12862083
192	0x3d15c08a	0.036560573
193	0xbd0e4144	-0.03473021
194	0xbd21d2a3	-0.03950752
195	0xbe0d0113	-0.13769941
196	0x3da9b199	0.08285827
197	0xbd90b69f	-0.07066082
198	0xbd020e3c	-0.031751856
199	0x3d704543	0.058659803
200	0xbd619a78	-0.055078954
201	0x3e477b96	0.19480738
202	0xbce89ce3	-0.028395122
203	0xbe2cbd38	-0.16869056
204	0xbd7fcfa4	-0.06245388
205	0x3b127148	0.0022345353
206	0x3b54e6c9	0.0032486191
207	0x3c5f7168	0.013637878
208	0x3e1164f2	0.14198664
209	0x3d0a84d9	0.0338181
210	0x3c839067	0.016060067
211	0x3c048cc3	0.008090201
212	0x3bef9563	0.0073115095
213	0x3b0c3f4b	0.002140003
214	0x3db0ddd5	0.08636061
215	0xbd757b10	-0.059931815
216	0xbd6f2635	-0.058386046
217	0x3cac9943	0.021069175
218	0x3cae518b	0.021279117
219	0xbdb79bed	-0.08965287
220	0x3dba83c3	0.09107163
221	0x3d9e812a	0.0773948
222	0xbd98f640	-0.074688435
223	0x3d1ca372	0.03824181
224	0xbe47e725	-0.19521768
225	0x3d989af9	0.07451434
226	0x3d8c781a	0.06858845
227	0xbda06676	-0.07832043
228	0x3dccbae4	0.09996584
229	0xbd9d6ab3	-0.07686367
230	0x3aae7039	0.0013308591
231	0xbcf53710	-0.029933482
232	0x3ba64f84	0.005075397
233	0x3c7d31c2	0.015453758
234	0xbd2d1f77	-0.042266335
235	0x3c84f5ee	0.01623055
236	0x3ce7e9f8	0.028309807
237	0x3dacb679	0.084332414
238	0x3d74459f	0.05963671
239	0x3e273014	0.16326934
240	0x3d1d7d36	0.03844949
241	0xbda00d2d	-0.07815013
242	0xbcce897c	-0.025212042
243	0xbcbc711f	-0.02300316
244	0x3d4d91f5	0.050188024
245	0x3d703cae	0.05865162
246	0x3da1be92	0.078976765
247	0x3d8054ac	0.0626615
248	0x3dabc7d4	0.083877236
249	0x3bb778c3	0.0055991127
250	0xbd18e7fc	-0.037330613
251	0x3d42f4ff	0.047596928
252	0xbd97eddb	-0.07418414
253	0x3cea8b5b	0.028630903
254	0x3c76abd8	0.015055619
255	0x3b5ae693	0.0033401593

fc_stack.2.bias f4 [32]
0	0xbd32b169	-0.043626223
1	0xbcaddcc1	-0.021223428
2	0x3d007b5e	0.031367652
3	0xbca77d15	-0.020445386
4	0x3d73985b	0.05947147
5	0xbce1bc5e	-0.02755564
6	0xbcb4f814	-0.02209095
7	0xbda90c1d	-0.082542636
8	0xbd7a9748	-0.06117943
9	0x3d9f0b01	0.07765771
10	0xbcf50664	-0.029910274
11	0xbb61593c	-0.0034385463
12	0x3dd70af4	0.10500136
13	0x3d972e8d	0.07381926
14	0x3be86b41	0.007092864
15	0xbda29fc4	-0.07940629
16	0x3d848d0d	0.06472216
17	0xbdbe27be	-0.09284924
18	0x3b4abbc6	0.0030934676
19	0x3dc616d0	0.0967232
20	0xbc932398	-0.017961308
21	0xbc7b86e2	-0.015351983
22	0x3d9972ab	0.07492574
23	0x3d20d5ee	0.03926652
24	0xbd85fbbf	-0.065421574
25	0x3d8d29df	0.06892752
26	0x3d255856	0.040367447
27	0x3c995cff	0.018721102
28	0x3d4a6480	0.04941225
29	0xbd89ab07	-0.06722074
30	0x3c66cc1c	0.014086749
31	0xbd568aab	-0.052378338

fc_stack.4.weight f4 [5, 32]
0	0x3e159e0a	0.14611068
1	0xbe477388	-0.19477665
2	0x3c24904d	0.01004417
3	0x3da4d518	0.08048457
4	0x3d9aad5b	0.07552596
5	0x3d02cad4	0.031931713
6	0xbe22e90a	-0.1590921
7	0x3dbf45a8	0.09339458
8	0x3df72e53	0.120693825
9	0x3dda15fd	0.10648725
10	0xbe92eaff	-0.28694913
11	0x3e2c203e	0.16809174
12	0xbe46fb54	-0.19431812
13	0xbe12ed8e	-0.14348432
14	0x3d59fedd	0.053221572
15	0xbe7e0ca8	-0.24809515
16	0x3dec2c64	0.11531904
17	0xbccbb8e6	-0.02486844
18	0x3df7e996	0.121051
19	0xbe3220e6	-0.17395362
20	0x3dd77725	0.10520772
21	0xbe0f10c0	-0.13971233
22	0xbca3832a	-0.019960005
23	0xbd9f52b3	-0.077794455
24	0xbe36c280	-0.17847633
25	0x3e51e4f8	0.20497501
26	0x3db0a06a	0.086243466
27	0x3d90125d	0.070347525
28	0x3d7d6ec6	0.06187322
29	0xbdf5833d	-0.11987922
30	0x3dc1dde1	0.09466148
31	0x3e34120a	0.17585006
32	0xbe1a0ff8	-0.15045154
33	0x3e33757d	0.17525287
34	0x3d8139b2	0.06309833
35	0x3cabc3aa	0.020967323
36	0xbe1b8dc0	-0.15190792
37	0xbcdb35ee	-0.026759114
38	0x3e3887b9	0.18020524
39	0x3dc3e783	0.09565642
40	0x3ca79538	0.020456895
41	0x3e1f3f38	0.1555146
42	0x3e030144	0.12793452
43	0xbda7ea14	-0.08198944
44	0xbdd1f354	-0.10251489
45	0x3c8804b5	0.016603807
46	0xbd710b74	-0.058848813
47	0xbdbdcb17	-0.09267252
48	0xbd0cb350	-0.034350693
49	0xbdd8cdcc	-0.10586128
50	0xbdc8764b	-0.097881876
51	0xbdb62ef2	-0.08895673
52	0x3e38b045	0.18035991
53	0xbd9a46d6	-0.07533042
54	0x3bf63fd7	0.0075149345
55	0xbe6d0d21	-0.2314954
56	0x3dc6ccdc	0.097070426
57	0xbe1a453e	-0.15065476
58	0xbc98b6be	-0.018641826
59	0xbd80af70	-0.06283462
60	0xbdcbdfb4	-0.09954777
61	0xbe171fbc	-0.147582
62	0xbe29d7a3	-0.16586165
63	0xbd8aae8f	-0.06771576
64	0x3d4529f9	0.04813573
65	0xbe404ebc	-0.18780035
66	0xbcc622ca	-0.02418651
67	0xbe21bc6c	-0.15794533
68	0x3e2a9e8b	0.16662042
69	0xbddc7747	-0.10764938
70	0x3e178a50	0.14798856
71	0xbdb8aede	-0.09017728
72	0x3d8128c5	0.06306604
73	0x3e31dd91	0.17369677
74	0xbcbe51b1	-0.023232313
75	0xbd112991	-0.03544003
76	0x3d1ab160	0.037766814
77	0x3c0b2070	0.00849162
78	0x3d71697d	0.058938492
79	0xbd7e3d07	-0.06206992
80	0x3c9263bb	0.01786982
81	0xbdb9d314	-0.09073463
82	0xbd814810	-0.06312573
83	0xbe150760	-0.14553595
84	0xbdee95a6	-0.11649637
85	0xbdc764c2	-0.09736015
86	0xbe72e42e	-0.23719856
87	0x3e120eba	0.1426343
88	0x3bbf9e6a	0.005847742
89	0xbe3126d2	-0.17299965
90	0xbdbcea5e	-0.092243895
91	0x3e1d0632	0.15334395
92	0xbdcec032	-0.10095252
93	0x3e074177	0.13208567
94	0xbcfe9609	-0.031077402
95	0xbe64b1db	-0.22333471
96	0x3db4b84c	0.08824214
97	0x3c5ee942	0.013605418
98	0xbdbb06b2	-0.091321364
99	0xbd96b29b	-0.07358285
100	0x3e24bf84	0.16088682
101	0xbe8177fe	-0.2528686
102	0x3c1c13f1	0.009526239
103	0x3e66adde	0.22527263
104	0x3dfedde5	0.12444667
105	0xbe1f0406	-0.15528879
106	0x3db1d515	0.0868322
107	0xbe29875e	-0.16555545
108	0xbdb01eda	-0.085996345
109	0x3d818033	0.0632328
110	0x3db85a26	0.090015694
111	0x3c66b359	0.014080846
112	0x3e2ba4a4	0.16762024
113	0x3d20fcae	0.039303474
114	0x3d8d1170	0.068880916
115	0x3c103cb5	0.008803536
116	0x3e027c2c	0.1274268
117	0x3dc71072	0.097199336
118	0x3c335aad	0.010946912
119	0x3e12da06	0.14340982
120	0x3d744402	0.05963517
121	0xbd5b5739	-0.05354998
122	0xbdf75dbe	-0.12078427
123	0xbc32863a	-0.01089626
124	0x3db97604	0.09055713
125	0x3d45dbdc	0.048305377
126	0xbd932c86	-0.071862265
127	0x3e138617	0.1440662
128	0x3d64ee2c	0.0558912
129	0x3e294d75	0.16533454
130	0xbe1811a0	-0.14850473
131	0x3c9410c7	0.018074406
132	0x3d9d3549	0.07676179
133	0x3dd6049e	0.104500994
134	0xbdedc9a8	-0.116107285
135	0x3d50687a	0.050880887
136	0x3e1c1ac2	0.15244582
137	0x3cb95608	0.02262403
138	0x3c88c9af	0.016697733
139	0xbdeaef0a	-0.11471374
140	0xbe53e8a7	-0.20694219
141	0xbe6a532e	-0.22883293
142	0x3ddcab9f	0.107749216
143	0xbe32d7df	-0.17465161
144	0xbbd027be	-0.006352394
145	0x3db13aa6	0.086537644
146	0xbd79f6f7	-0.06102654
147	0xbe10f5a1	-0.141562
148	0x3e05e2e0	0.13074827
149	0x3c2b500b	0.010456095
150	0x3d93cf61	0.07217289
151	0x3d97dad5	0.07414786
152	0x3cb232f2	0.021752808
153	0xbc27eabb	-0.010248835
154	0x3cff82df	0.031190334
155	0x3dd731f0	0.10507572
156	0x3e2070e7	0.15668069
157	0xbe4ea367	-0.2017952
158	0x3afe09b6	0.0019381556
159	0x3d91cf3f	0.07119607

fc_stack.4.bias f4 [5]
0	0xbe09de69	-0.13463749
1	0x3d7faad6	0.06241878
2	0xbd460fad	-0.048354793
3	0xbcab6491	-0.020921977
4	0x3d71623f	0.058931585
